data/gat_eeg_model.pth (torch, 7432 bytes, 8 tensors)

conv1.att_src f4 [1, 4, 16]
000000 04 99 b3 3e 3e 8a 31 be 85 90 ba 3d 3d 93 2c be
       0.3507768 -0.17337891 0.09109596 -0.16853042
000010 7f 23 92 3e e1 5c 90 be da 82 fe 3e 4e 0c aa bd
       0.28542706 -0.2819586 0.49709207 -0.08303128
000020 25 5d f8 3e 91 89 1f 3f b0 7f 83 be 57 ce df 3e
       0.48508564 0.62319285 -0.25683355 0.43712112
000030 d3 8e 0a be a5 40 d4 3e 9b 73 c4 3e 97 d4 03 3f
       -0.13531046 0.4145557 0.3836945 0.5149626
000040 21 c6 74 bf 2c db be be dd 1e f7 3e 48 52 3d bf
       -0.9561482 -0.3727659 0.48265734 -0.73953676
000050 00 99 9c be 22 67 32 3e 57 2e 82 be 85 03 e9 3d
       -0.3058548 0.17422155 -0.2542598 0.113776244
000060 8e a0 55 be cb c8 c9 3d 8f ec 49 3e 62 5e 66 be
       -0.20862028 0.09852751 0.19719146 -0.22496942
000070 ad 74 d9 be 9e 73 ae be 90 c8 3a 3e d6 68 7b 3e
       -0.4247183 -0.34072584 0.18240571 0.2455171
000080 8f 93 88 3e a5 9f d8 be 5c cb d4 3e 2a 8b 00 3f
       0.26675078 -0.423093 0.415614 0.5021235
000090 34 2a 15 be b5 60 3e 3f 6d 5f e1 3e d1 73 d0 be
       -0.1456688 0.74366313 0.44018117 -0.4071336
0000a0 76 93 04 3f 1d f2 f0 be 11 f6 a5 be 24 ed 8a 3d
       0.5178751 -0.47059718 -0.32414296 0.06783512
0000b0 3c c5 78 be c3 8d 78 3d fb b6 39 3e 83 6f 44 3e
       -0.24293989 0.06068207 0.18136208 0.19183163
0000c0 a6 a0 0a bf 1e 16 11 be 26 66 00 bf 03 04 f7 be
       -0.5415138 -0.14168593 -0.50155866 -0.48245248
0000d0 b3 0d 79 be 85 ca ae be 8d 6b c3 bd 8c af c8 be
       -0.24321632 -0.34138885 -0.09541998 -0.39196432
0000e0 52 ec d3 3d 78 b6 e0 be e6 2f 31 bf 43 2a 37 bf
       0.10347809 -0.43889213 -0.6921371 -0.7154886
0000f0 2c 79 da 3e b5 50 10 bf ff 2b f1 be 4b aa 82 3b
       0.42670572 -0.5637315 -0.4710388 0.0039875857

conv1.att_dst f4 [1, 4, 16]
000000 72 d4 84 be 82 a5 cd be 39 46 c0 be c2 98 ba be
       -0.25943333 -0.40165335 -0.37553576 -0.3644467
000010 8d 68 51 3e cc dd b1 3c 4d ed e3 3d 35 8a 70 3e
       0.20450039 0.021712206 0.11129246 0.23490222
000020 16 cf b3 3e 75 31 c8 be e0 b3 cb 3e 2b 14 9d be
       0.35118932 -0.39100233 0.3978567 -0.3067945
000030 52 15 c4 be b4 16 c6 be 2f 6c 46 be c2 a2 97 bc
       -0.38297516 -0.38689196 -0.19377206 -0.018510226
000040 1e e3 8d 3b f4 57 22 bd 13 fa 84 bd 14 51 27 be
       0.004330053 -0.03963466 -0.0649301 -0.16339523
000050 4d f9 ff 3b 3a 36 31 3d 27 8d 79 3b c3 ab de be
       0.0078117014 0.043264605 0.0038078518 -0.4349042
000060 2a 83 1c 3c 55 ca f4 bd ed 2a 72 bc 27 38 2b bd
       0.009552756 -0.11952654 -0.014780742 -0.041801598
000070 02 9d 21 bd a8 8c d9 bd 6b bb d0 bd 5e ca 19 3a
       -0.039456375 -0.10622531 -0.10191997 0.0005866642
000080 f6 c7 65 3e bc 7f 5f 3a e9 83 d1 3e 00 b8 b4 be
       0.2243956 0.0008525809 0.40920952 -0.3529663
000090 c0 cd fc be 4b 4c 90 be bb 23 b7 3e 66 88 57 bd
       -0.49375725 -0.28183207 0.35769448 -0.052620314
0000a0 d2 a7 ad 3e 57 7b f2 3e 5e 21 b5 3e 04 a4 34 bd
       0.339171 0.47359726 0.3537702 -0.04410173
0000b0 aa 21 59 3e 3d 6c a8 3e 03 17 9d 3e 14 9e 3d 3e
       0.21204248 0.3289508 0.3068162 0.18517333
0000c0 47 10 a9 bd 08 10 4a bf c9 1a af be e5 92 2e 3f
       -0.08255058 -0.7893071 -0.34200123 0.68192893
0000d0 04 c0 32 3f 37 ce d2 be 7d 48 28 bf 94 c1 2f 3d
       0.6982424 -0.41172954 -0.6573561 0.04290922
0000e0 aa aa a0 3e 5f cc 1b 3e 24 d9 bc 3e 8c 6a 11 be
       0.31380206 0.1521468 0.36884415 -0.142008
0000f0 e3 09 48 bd 6c ad 7d bd 43 82 05 3f 9b 83 18 bd
       -0.048837554 -0.061932966 0.5215189 -0.037234884

conv1.bias f4 [64]
000000 00 d7 08 3f 98 ac 5e 3d 7f 65 67 3d 8e a4 69 3d
       0.53453064 0.054363817 0.05649328 0.057041697
000010 80 97 83 3a 05 e0 41 3d 31 fb 4b 3f 73 be d4 3e
       0.0010039657 0.047332782 0.7968016 0.4155155
000020 04 f9 04 3e fe 6e 52 3f 76 bc ea bc 71 1c 08 3e
       0.12985617 0.8220061 -0.028654318 0.132921
000030 4a 7c ab 3e ad 4b b5 3e 1a c8 2d bd c0 50 2f 3f
       0.33493263 0.354093 -0.04242716 0.6848259
000040 11 bf ae 3d 52 7c b3 3e fa a0 6e 3d fb 53 4a 3e
       0.08532537 0.35055786 0.058258988 0.19758599
000050 4d 77 8a 3e f7 66 31 3d 7d 03 b4 bd f2 cd 8b 3e
       0.27044144 0.043311086 -0.08789728 0.2730556
000060 69 55 39 be ff 0d a0 3e 57 07 0a be 3e 4c 44 3b
       -0.18098988 0.31260678 -0.13479362 0.002995267
000070 65 24 79 3f 52 98 92 3e 69 8e ea 3e c4 73 9d 3d
       0.9732116 0.28631836 0.45811775 0.07688096
000080 46 48 e7 3e 46 7c 6d bd 8c b9 82 3f 2b 60 45 3e
       0.45172328 -0.057979845 1.0212874 0.19274966
000090 03 b8 a6 be 19 41 08 3f f0 50 97 3e 9a 70 af 3d
       -0.32562265 0.5322433 0.29553938 0.08566399
0000a0 58 9d cc 3e 78 2c cb 3d 68 65 e0 bd 7a 09 98 bd
       0.39963794 0.09920591 -0.10956842 -0.074236825
0000b0 29 1d 8b 3e 95 2f c4 3e 8f d4 8b 3c ef 45 c4 3d
       0.27170685 0.38317552 0.01706913 0.09583651
0000c0 76 db 6e bd 54 33 e2 3e d9 a7 2a bd 19 61 88 bd
       -0.058314763 0.44179785 -0.04166398 -0.06659145
0000d0 dd cf 25 be fa 77 04 3e ec 2d 09 3e 11 30 e9 bd
       -0.16192575 0.12936392 0.13396424 -0.11386121
0000e0 a1 16 b9 3d d7 25 0c be c1 36 8f bd 4a ca 18 3e
       0.09037519 -0.1368631 -0.06992865 0.14920917
0000f0 4c 73 f0 3e e1 ec be bd b3 16 53 3d 7f 7c 6c 3e
       0.46962965 -0.09322525 0.05153532 0.23094366

conv1.lin.weight f4 [64, 6]
000000 c3 27 a9 be a0 ea 6e be a6 ad 07 bd 9a ea 9f 3d
       -0.33038148 -0.2333169 -0.03312459 0.078084186
000010 2b 1a ea be 56 c5 28 be 4a 88 b3 be a4 fb d0 3d
       -0.4572309 -0.16481528 -0.35064918 0.10204247
000020 0c 4c 0e be c0 31 8c bd 47 e0 8c 3d 39 f7 30 3e
       -0.13896197 -0.068454266 0.06878715 0.17281808
000030 ad 4b 0f bc 95 18 d8 be 60 8e 4f be 23 ec bb be
       -0.00874607 -0.42206255 -0.20269156 -0.36703596
000040 4f e8 a4 be 3f 50 1c be ee a3 b1 3d 45 96 99 b9
       -0.32208487 -0.15264986 0.08673845 -0.00029294394
000050 94 5e 17 be 4d 26 0f be ff 6a fc bd 09 6f 42 3d
       -0.14782172 -0.13979454 -0.123250954 0.047469173
000060 a4 51 5e be e5 98 e4 bd 68 8b c2 bd 68 eb 92 be
       -0.21710831 -0.11161975 -0.09499246 -0.28695226
000070 fc 1b 49 3e 65 fb 17 3e 7c fc cb 3d 23 77 5c be
       0.19639581 0.14841993 0.09960267 -0.21529822
000080 f3 a1 3a be 6d e1 60 3e 59 f8 3d bd 67 0f 12 be
       -0.18225841 0.21960993 -0.04637942 -0.14263688
000090 c0 10 5d be fd 28 53 be 03 5e 25 be b0 b2 2b be
       -0.21588421 -0.20621105 -0.16149144 -0.16767383
0000a0 eb 26 be be e4 10 54 3e c4 e1 01 be 0b d8 2d be
       -0.37139067 0.20709568 -0.12683779 -0.16976945
0000b0 b7 54 d1 3d fa 4c 7e 3c d5 2e 45 be 12 f6 62 bc
       0.10221236 0.015521282 -0.19256146 -0.013852613
0000c0 d0 e9 c5 3d 30 fe 93 3d e1 5d 44 be eb 78 5f be
       0.09663737 0.07226217 -0.19176437 -0.2182347
0000d0 09 51 69 be 6e e7 cd bd b9 1d 49 be 62 b4 e9 bd
       -0.22784819 -0.10053907 -0.19640245 -0.114113584
0000e0 b0 a9 2b 3d 68 c5 00 bf ee fa d2 be fa 89 84 be
       0.041909873 -0.5030122 -0.4120707 -0.25886518
0000f0 99 92 04 3d 07 cd 2d bd f0 13 81 bd 7a 88 d5 3a
       0.03236637 -0.042431857 -0.06302631 0.0016291284
000100 2d 84 c4 bd f3 53 66 3d a9 e4 9c be 1e 04 4f be
       -0.09595523 0.056232404 -0.30643204 -0.20216414
000110 1b 56 82 be ad b9 23 3c fd a1 d2 3d aa 78 af 3d
       -0.25456318 0.009992999 0.10284803 0.08567937
000120 98 44 c9 be 1b d8 52 bc bc 49 9b bc 90 b5 4d 3d
       -0.39310145 -0.012868906 -0.018956058 0.05022198
000130 11 f5 21 bd 6e d0 e8 bc cd b7 52 be f8 85 80 be
       -0.039540354 -0.0284197 -0.20577927 -0.2510221
000140 ee 94 03 bf 1e fe 07 bf da cd c5 be ca c1 03 be
       -0.51399124 -0.5312213 -0.38633615 -0.12866893
000150 e1 81 02 bd a2 a8 78 3e d3 97 a6 be 21 03 04 3e
       -0.031862143 0.24283078 -0.32537708 0.12891819
000160 25 ba 0d be 8a c2 14 bd 2e e2 46 3d ec c9 8f 3e
       -0.1384054 -0.03631834 0.048555546 0.28083742
000170 30 67 a0 bd c8 0d 63 bd 41 12 d4 be 06 ce 9c be
       -0.078321815 -0.055433065 -0.41420177 -0.30625933
000180 12 59 3c 3e 7a df 0f 3e a7 b1 a3 3e a6 4f 56 3e
       0.18393353 0.14050093 0.31971475 0.20928821
000190 28 6a 07 bf db 21 99 be fa f9 83 3e d8 11 63 3c
       -0.52896357 -0.29908642 0.25776654 0.013859235
0001a0 1c f5 65 bd ec 19 5b be 98 82 82 bd ca 74 ac be
       -0.056141958 -0.21396607 -0.06372565 -0.33682853
0001b0 15 88 dd be 15 93 e3 bc 00 2f 3d 3e d1 18 93 bd
       -0.43267885 -0.027780095 0.1847496 -0.07182468
0001c0 71 f4 d9 bd 1d f6 8c 3d 60 c2 44 be 42 ab 87 3e
       -0.106423266 0.0688288 -0.19214773 0.26497847
0001d0 e2 7f 36 be b7 9c 10 3e 67 a8 11 bf f0 b8 cb be
       -0.17822221 0.14122282 -0.56897587 -0.39789534
0001e0 24 f1 a5 3d b7 53 18 3d 15 ef 2c 3e bd f4 d9 bd
       0.081026345 0.03718921 0.16888078 -0.10642383
0001f0 3f 8b c6 be b4 be a2 be 7c 11 0b 3e 80 25 ba be
       -0.3877811 -0.3178612 0.13580889 -0.36356735
000200 a8 d4 a3 3d 41 09 8d bd 1f 6e 3b 3d f5 c9 d9 bd
       0.07999545 -0.06886531 0.045759317 -0.10634223
000210 a5 55 b1 3d 90 ce 2a be 4c d0 33 3e 8f 91 3f be
       0.086589135 -0.1668036 0.17559928 -0.1870787
000220 4c 84 26 be 68 2c c4 be df d0 c4 be bc 43 89 be
       -0.16261405 -0.3831513 -0.38440606 -0.2680949
000230 cd 11 fa be f3 63 20 bd b9 40 f6 bd 41 f7 e1 3d
       -0.48841706 -0.03915782 -0.120240636 0.11033488
000240 30 d5 fd bc d5 c9 aa 3d 70 9a 62 3e c2 e1 79 be
       -0.030985445 0.08339278 0.22129226 -0.24402526
000250 4c b8 72 bd b7 53 33 3e af db 2e be e2 ce 18 3e
       -0.05925779 0.17512403 -0.1707599 0.1492267
000260 94 3f 40 3e 19 50 36 be 78 92 f3 bd cf b4 9e be
       0.18774253 -0.17803992 -0.11893171 -0.3099732
000270 21 a1 95 3d 9d a9 29 3c 54 80 d5 be 58 e0 26 3d
       0.073061235 0.01035538 -0.4169947 0.040741295
000280 71 fd c9 bd 2d 3a 15 3d 5d 7e 8d bd 90 89 4c 3d
       -0.09862793 0.036432434 -0.069088675 0.049935877
000290 c9 96 bf 3d 44 1b d6 bd 1f d4 86 be 4a 89 0e bd
       0.09354932 -0.10454419 -0.2633371 -0.034798898
0002a0 72 7e 6c bd a8 39 2a be 59 d6 5c 3e 91 6b f2 3d
       -0.057737775 -0.16623557 0.21566142 0.11836923
0002b0 cb 2e cd be 23 72 78 be 94 94 b9 3d 71 ef 2e 3e
       -0.40074763 -0.2426229 0.09061542 0.17083527
0002c0 9e 3b 32 3e b5 2e 8f 3d 7a 43 0c bf 66 75 bd be
       0.17405555 0.069913305 -0.5479046 -0.3700363
0002d0 01 f5 ef be d5 a8 12 bf bb 6f d4 be f3 88 9e bc
       -0.4686661 -0.5728887 -0.41491494 -0.019352412
0002e0 1d 4b d9 bd bb c1 f2 be ad f5 e4 bb d3 5b 48 bd
       -0.1061003 -0.4741343 -0.0069872946 -0.048915695
0002f0 0e 92 df be 9b f4 cd be 8d 06 5d 3e fd 76 c1 bd
       -0.43666118 -0.40225682 0.2158453 -0.09446523
000300 da e6 c3 be 21 3f 6b be 7b f6 01 be 8c 60 09 3e
       -0.38262063 -0.229733 -0.12691681 0.13415736
000310 a1 2d a5 be 2a fd fe be 3b ef 8e be 46 b8 11 3d
       -0.32261375 -0.49802524 -0.27916893 0.035576127
000320 c8 28 4b 3d c0 3c 92 be 30 97 7a 3d 4f 64 fb 3d
       0.04959944 -0.28561974 0.06117934 0.12274992
000330 f5 aa 83 be 9c 63 a9 3d f7 1b a4 be c3 db 51 bc
       -0.25716367 0.08270952 -0.32052585 -0.012808743
000340 bd ea 03 be 9a d0 f1 be ab d4 c1 bd 11 12 52 be
       -0.12882514 -0.47229463 -0.09464391 -0.20514704
000350 d5 2e 4c 3d 8b 97 0e 3e 50 fc 79 3d 94 6c f5 be
       0.04984935 0.13924997 0.06103164 -0.479344
000360 77 f3 05 3e 83 03 45 be 8c 22 97 3c d8 c7 41 3e
       0.13081156 -0.19239621 0.01844909 0.1892389
000370 ef 47 75 be 11 06 99 bc a6 99 e5 be 97 f9 27 be
       -0.23953222 -0.01867965 -0.44843787 -0.16403805
000380 38 fa 5f be ef 7b 5d 3e b5 b1 ad be c8 86 10 bf
       -0.21872795 0.21629308 -0.33924642 -0.5645566
000390 00 8d 19 bf 53 48 b2 be c7 32 11 be 24 6c 80 be
       -0.59980774 -0.34820804 -0.14179526 -0.25082505
0003a0 9d bc cd be a2 2f 8b bd 01 4c d1 3d 59 c0 c9 3c
       -0.40182963 -0.067961946 0.10219575 0.024627851
0003b0 ca 4f e9 3d 26 07 7f be 9b 75 8d be fb c1 9d bc
       0.11392172 -0.2490507 -0.27628788 -0.019257536
0003c0 31 bc 16 bf d4 f2 94 be 14 e0 19 3d 42 db 4b bd
       -0.5888091 -0.29091513 0.037567213 -0.049769647
0003d0 75 af 8a be 36 b9 23 bf b3 fc 8e 3e 5c ec 05 be
       -0.27086988 -0.63954484 0.2792717 -0.13078445
0003e0 c2 27 4d be cb 1d 9f 3d e4 cc 1a bc 1d 22 0a be
       -0.20034698 0.077693544 -0.009448264 -0.13489576
0003f0 bc 70 fa 3d 81 03 8c be 1e 80 13 3e f9 dd 59 3e
       0.122285336 -0.27346423 0.14404342 0.21276082

conv2.att_src f4 [1, 1, 7]
000000 cc cc a9 3e ee d8 57 be b7 6f d4 3e 8a e9 de be
       0.3316406 -0.21078846 0.41491482 -0.4353755
000010 a3 21 24 bf ba 8f d8 be fd 4e b6 be
       -0.64113826 -0.42297155 -0.35607138

conv2.att_dst f4 [1, 1, 7]
000000 b7 63 51 bf ab 4c b6 bc a4 2e 80 be 6e 20 8c 3f
       -0.8179278 -0.022253355 -0.25035584 1.0947397
000010 93 dc 0f 3f c4 6b 57 3f 81 fa a8 3d
       0.56195945 0.8414881 0.08250905

conv2.bias f4 [7]
000000 5d 7c fb 3d 66 21 db bc bb f5 05 be d0 96 8e 3d
       0.1227958 -0.026749324 -0.1308202 0.06962359
000010 86 5c 92 be 4f f5 df 3d fa 5d b4 3d
       -0.28586215 0.10935461 0.08806987

conv2.lin.weight f4 [7, 64]
000000 8d f4 08 bd 19 d6 4c bd 51 dd b3 3c 66 98 29 3e
       -0.033436347 -0.050008867 0.021956118 0.16562042
000010 29 a9 f3 3c c5 08 86 3e fb 29 99 be 5c 61 9c bd
       0.029743748 0.26178566 -0.2991484 -0.07635757
000020 8c 48 2f 3d 6b 73 40 bc 2e 94 06 be 94 c8 55 bc
       0.042793795 -0.011746268 -0.13142464 -0.01304831
000030 97 21 6e 3d dd b6 8b bd a4 7b 1a 3e 0a 41 52 3d
       0.058137503 -0.06821988 0.15086228 0.051331557
000040 8e 1a 9d be 40 b8 0d 3e 3f 57 d1 3d 75 7d a8 be
       -0.30684322 0.13839817 0.10221719 -0.32908216
000050 74 e4 12 be 7a 3b 76 bc b0 b6 53 be a3 01 31 be
       -0.1434496 -0.015028829 -0.20675159 -0.1728578
000060 94 4b 99 3d d6 aa ba bd 5c f5 b8 bd 91 a6 4b 3e
       0.074851185 -0.091146156 -0.090311736 0.19887759
000070 1c 50 2b bd 1a 5f 3b be 7c fb 11 3d 47 b6 8a 3b
       -0.041824445 -0.18297997 0.035640225 0.004233155
000080 53 82 08 3e c8 43 bd bc a2 9b 86 bb 50 fa 3f 3e
       0.13330965 -0.02310361 -0.0041079083 0.1874783
000090 12 c9 21 3e 6f 32 3e be 9b 8a b2 be b4 34 69 3c
       0.15799358 -0.18573926 -0.34871373 0.014233757
0000a0 53 c7 a4 3d 58 ea 0e 3e 44 44 4f 3a 16 c0 41 be
       0.080458306 0.13956583 0.0007906596 -0.18920931
0000b0 a5 fe 74 3e c8 74 0a 3e 95 65 aa be 7b e7 9b bd
       0.23925264 0.13521111 -0.33280626 -0.07612511
0000c0 2f 13 88 be 4d aa f8 bd e4 6b 56 3e 9e 44 b4 bc
       -0.26577136 -0.12141857 0.20939595 -0.022005375
0000d0 2c f8 1c be cb 12 19 3d d9 98 eb ba fc 40 95 3d
       -0.15329045 0.037371438 -0.0017974629 0.072877854
0000e0 a4 11 14 3e c6 51 10 3e 4f a5 0d be 19 05 69 bc
       0.14459854 0.14093694 -0.13832591 -0.014222407
0000f0 20 a2 b4 3d 98 02 68 3e d3 d4 cc 3d 45 a2 b6 bc
       0.088199854 0.2265724 0.100015305 -0.022294173
000100 5f 78 60 be 71 e1 5a bd cd 4b 82 3c ac e8 22 bd
       -0.21920918 -0.053437654 0.015905285 -0.039772674
000110 79 a7 4b 3a 6e b8 43 be 44 47 40 be 60 c4 53 be
       0.0007768791 -0.19113323 -0.18777186 -0.2068038
000120 d7 f8 bc 3d 76 e8 59 3e 2f 0b 39 b9 b3 f9 82 3e
       0.0922715 0.21280083 -0.00017647141 0.2558113
000130 8c 76 87 be a5 d1 5a 3e f8 e2 13 3e 6c 1a 9d bc
       -0.26457632 0.21369036 0.1444205 -0.019177638
000140 6e b0 6a be f8 d9 89 3d 8d 82 0b be 0a f4 86 be
       -0.22918865 0.06731027 -0.1362402 -0.26358062
000150 17 34 e8 bd 33 ec 05 bd a5 1b 8f 3d fb 1d d4 3d
       -0.1133806 -0.03269596 0.06987695 0.10357281
000160 53 2a 0a 3e 5d 23 08 be d5 00 05 bd 9b f3 4d 3e
       0.13492708 -0.1329474 -0.032471497 0.2011246
000170 86 0d 93 be 4b c0 ea 3b c0 5a 40 3e 21 f8 3e 3e
       -0.28721255 0.0071640364 0.18784618 0.18649341
000180 b0 5c 5e be e6 f8 67 3e 2c 00 e2 bd 37 7d 34 be
       -0.21715045 0.22653541 -0.11035189 -0.1762589
000190 61 d2 a7 3d f1 18 91 bd d8 5f d1 bd 20 2e a6 3e
       0.081944235 -0.07084835 -0.10223359 0.32457066
0001a0 38 37 66 3d df fa 70 3d 80 25 7b bc df 43 18 be
       0.056205004 0.058833 -0.015328765 -0.14869641
0001b0 a0 9a 1a bc 19 5e 0d bd c4 19 f9 bd 9e 1a c6 3d
       -0.00943628 -0.034513567 -0.121631175 0.096730456
0001c0 88 ab 3e be 93 b5 01 bd eb 63 e1 3d 81 3a be bd
       -0.18620121 -0.031667303 0.11005386 -0.092885025
0001d0 25 91 5c 3e 40 79 8a bd 67 98 f8 bd 3e 18 3a 3d
       0.21539743 -0.06761408 -0.121384434 0.045433275
0001e0 4b 8e 01 be 94 29 ba 3d 03 55 c6 bd 08 4c f3 3b
       -0.12651937 0.09089962 -0.096841834 0.007424835
0001f0 c3 f0 d7 bd 10 12 2e 3e 30 b2 e8 3d 44 ca d6 3d
       -0.105439685 0.16999078 0.113621116 0.10487798
000200 eb f1 75 3d 8f ba 89 3c ca fa f7 bd d2 09 d0 3d
       0.060045164 0.01681259 -0.12108381 0.10158123
000210 80 a8 8b 3e 32 a5 14 3e e5 e7 70 be 2c 8c 7a bd
       0.27276993 0.14516142 -0.2352596 -0.061168835
000220 53 3e 2e 3e cc 9f ca bd 55 d1 b8 bc 23 0d 0b bd
       0.17015962 -0.0989376 -0.022560755 -0.033948075
000230 16 52 e6 bc 88 64 ef 3d 20 94 18 be bb d8 5e 3e
       -0.028115314 0.11689097 -0.14900255 0.21762364
000240 df 00 a1 bd da 7a 56 be 06 d5 ef 3d 70 e8 1c 3e
       -0.07861494 -0.20945302 0.11710553 0.15323043
000250 78 be 24 be f1 2e 96 be 0a 7b 85 3e 6d 03 52 bc
       -0.16088283 -0.29332688 0.26070434 -0.0128182
000260 98 f0 fc 3d 1f ea 1a be 3e 6d 0c be 05 39 76 3e
       0.12350577 -0.15128373 -0.13713548 0.24045189
000270 dc 6b a6 bd 09 74 5e be ff bc 9e be 20 9d 6c 3e
       -0.08126041 -0.21723951 -0.31003568 0.23106813
000280 98 16 15 be 3c 94 54 3e d6 db 91 be 55 a0 96 3d
       -0.145594 0.20759672 -0.28488034 0.073548
000290 ef 8e bf 3d fd 68 3a be 7f 45 11 bd a7 be 13 bd
       0.09353434 -0.18204112 -0.035466667 -0.036070492
0002a0 9c 9a b2 3d c8 b1 3b bd 4a 13 31 3c ff c5 6b be
       0.08720896 -0.045823842 0.0108078215 -0.23024748
0002b0 a5 38 f4 3d f8 3c 4f 3e dd 06 be 3d 8e 20 c1 bd
       0.119248666 0.20238101 0.09278653 -0.094300374
0002c0 1d 6e 88 3e 25 c2 3f 3e 93 3c 5f 3e 3e 54 3d be
       0.2664651 0.18726404 0.21800451 -0.18489167
0002d0 9e 3e 88 bd 0f be 8b 3c 26 a4 c4 3d ff 78 b0 bd
       -0.06652568 0.0170584 0.09601621 -0.08616828
0002e0 9f 53 47 bc 48 2b ae 3d f0 26 9e bd bd 58 90 be
       -0.012165933 0.08504349 -0.077222705 -0.28192702
0002f0 8f d1 1c be 71 83 0a 3c 8f db 92 3c 80 11 66 be
       -0.15314315 0.00845419 0.01792696 -0.22467613
000300 aa 93 8b 3d d4 41 f1 bd 58 68 76 be 60 a6 89 be
       0.06815274 -0.11780134 -0.24063241 -0.26884747
000310 e4 f8 ce bd c7 3c 6f 3c ed b5 8e be 6f fb 3f bd
       -0.10106066 0.014601893 -0.27873173 -0.046870645
000320 cc 15 23 3e ed 15 97 3d 4d e0 e6 3d 13 f1 96 3d
       0.15926284 0.07377229 0.11273251 0.073702
000330 be 08 70 be 01 f3 40 3a 8e 3f 31 3e db 5e 00 3d
       -0.23440835 0.0007360429 0.173094 0.03134046
000340 3b d2 4b bc 19 67 2d be d9 29 b2 bd 6c 2f 98 be
       -0.01244026 -0.1693386 -0.08699388 -0.2972368
000350 b1 6e 69 bd 9d a8 8b 3d 9b 44 0a be c4 53 72 3e
       -0.05699033 0.0681927 -0.13502733 0.23664767
000360 f1 0d a3 3d c2 92 53 be 5d a1 c2 3d a4 52 b2 3d
       0.079616435 -0.20661452 0.09503434 0.08707169
000370 fb ee 6a be f4 b2 d4 3c 61 b7 d0 bc 83 fe 1e 3e
       -0.22942726 0.025964238 -0.025478067 0.15526776
000380 8c 9c 21 3e 16 ae 18 3d 41 c7 40 3d e5 70 93 3d
       0.15782374 0.037275396 0.047065023 0.07199267
000390 f6 5c 1c 3e 84 4f 1a 3e 61 51 8a be c4 3a 3d 3e
       0.15269837 0.15069395 -0.27015212 0.18479449
0003a0 5b 63 76 bc d2 16 9c 3d 7f 63 92 bd 2e 80 ad be
       -0.015038337 0.0762154 -0.071478836 -0.33886856
0003b0 c8 1f c1 bd 7f 81 05 be d4 87 9e bb d1 3a 3b be
       -0.0942989 -0.1303768 -0.0048379693 -0.18284155
0003c0 66 36 28 3d d4 5a e8 3d 16 13 4b 3e 4d ca 5f 3e
       0.041067503 0.11345449 0.198315 0.21854515
0003d0 f0 fb 12 3e 0c ea 49 be 94 32 95 3d cf 38 86 be
       0.14353919 -0.19718188 0.07285038 -0.26215217
0003e0 df 06 c1 bd cf 15 14 3e d5 c4 40 be 34 61 c1 3c
       -0.09425139 0.14461444 -0.18825085 0.02360592
0003f0 1e f2 1d be a9 b9 1a 3e 24 33 3b 3c 6a f3 70 be
       -0.15424392 0.15109886 0.011425767 -0.23530355
