data/gat_eeg_model.pth (torch, 7432 bytes, 8 tensors)

conv1.att_src f4 [1, 4, 16]
000000 88 08 a9 be 34 58 77 bb 4b 5e 98 be d8 8f 81 be
       -0.3301432 -0.0037741782 -0.2975944 -0.25305057
000010 07 3b 65 bd 20 64 c3 be f4 06 c7 3d 69 94 44 3f
       -0.055964496 -0.38162327 0.09718123 0.76788956
000020 65 24 24 be 9c 78 89 3e 81 8d 21 3f f1 68 d0 be
       -0.16029508 0.2684983 0.6310654 -0.40705064
000030 ed 75 0f 3f 2c 5d 87 3d 50 9c 13 bf 6d 1f fe be
       0.56039315 0.06609568 -0.5766039 -0.4963335
000040 79 da 8b 3c 8c 31 45 3f 65 66 9e 3f aa f0 df be
       0.01707195 0.7702873 1.2374998 -0.437383
000050 c4 ae 76 3f e2 ee 97 be a0 30 19 be 06 6d d4 3e
       0.9636042 -0.2967444 -0.14959955 0.41489428
000060 f0 a4 c1 3d 75 c8 bc be 3c 68 5b 3f a5 72 b1 be
       0.094552875 -0.36871687 0.85705924 -0.3465778
000070 3a ea 3f 3e 94 eb 3f 3f e0 f2 0b bf 4d 02 e9 3d
       0.18741694 0.7496884 -0.5466747 0.11377392
000080 87 32 d6 3e fa b5 95 3e 7c 70 a0 be 85 c9 8c 3f
       0.41835424 0.292404 -0.3133582 1.0998999
000090 d7 00 ac be 35 be 60 3d d0 7e 5a 3f 56 05 d4 3d
       -0.3359439 0.054868896 0.8534975 0.1035258
0000a0 44 6d 19 3f 90 1d a4 3e 89 ed 9c 3f 0a ff 10 bf
       0.5993235 0.32053804 1.225999 -0.5663916
0000b0 5e 78 49 3f 6d 24 d1 be 58 ce 2f bc aa 5d 57 3c
       0.7869929 -0.40848103 -0.0107303485 0.01314489
0000c0 de 80 dd bd 52 db 39 3f d9 42 50 bd 43 aa 47 3f
       -0.10815595 0.7260028 -0.050845 0.77994174
0000d0 52 b6 5c 3f c0 a7 4a 3f 3b 32 48 bf 6a a0 9f 3f
       0.862157 0.79162216 -0.78201646 1.247083
0000e0 b4 9e 93 3c ee e6 f0 3d 0e 25 76 3f c6 dc 1a 3e
       0.018020011 0.11762796 0.9615029 0.15123281
0000f0 b1 61 2e 3f 00 d0 3d 3f 61 59 14 3f 42 5a f1 3d
       0.68117815 0.7414551 0.5794888 0.117847934

conv1.att_dst f4 [1, 4, 16]
000000 73 67 be be 5c 07 43 bf aa 39 b3 bd 28 d4 04 3f
       -0.371883 -0.76183105 -0.08751233 0.51886225
000010 aa 9b 77 bc 69 cb f7 bd 93 f8 98 be e6 09 3c bf
       -0.015112797 -0.12099344 -0.29877147 -0.73452604
000020 4f 35 d0 3e fb 15 4f bf 7a 53 89 3d 34 cd d3 be
       0.4066567 -0.80892915 0.06705375 -0.41367495
000030 05 b8 9f bf dc 49 dc bd 54 4d fa bd 42 8f 38 3e
       -1.2478033 -0.10756275 -0.122217804 0.18023399
000040 b4 66 a5 bf 8e b3 a1 be d2 01 6c bf c0 5d 21 bf
       -1.2921968 -0.31582302 -0.9219028 -0.63033676
000050 8c fb 75 bd 42 cb 8f bf bb db c6 bf 5b 56 5f bf
       -0.060054347 -1.1233904 -1.5535806 -0.87241143
000060 6b 08 c4 be 9d 35 2f 3f 57 47 6e bf a8 e0 2c 3f
       -0.38287672 0.6844118 -0.93077606 0.675303
000070 e1 da b4 bc 56 52 88 be 30 d4 59 bf 8e 19 b0 be
       -0.022077026 -0.26625317 -0.850894 -0.34394497
000080 12 7b 98 38 37 4d 9d b7 05 d8 81 35 8d 3c 37 38
       7.2708484e-05 -1.8751814e-05 9.674119e-07 4.3686992e-05
000090 a1 38 cd b7 12 7a 40 b7 9e cc 6a b8 10 48 95 b7
       -2.4464274e-05 -1.14725135e-05 -5.5980512e-05 -1.779574e-05
0000a0 e7 86 3c 38 b7 26 8a 38 cd 28 0e b8 56 1f ec b6
       4.494833e-05 6.587564e-05 -3.3893437e-05 -7.036996e-06
0000b0 e8 33 b0 b5 e3 82 0c 39 ae c0 34 b9 37 9b 1d b7
       -1.3128129e-06 0.000134002 -0.00017237916 -9.394068e-06
0000c0 0b 1d 23 3f 4c ed a4 bd 66 5c 6c 3e 9e 03 b3 bc
       0.6371619 -0.08053073 0.23082122 -0.02185231
0000d0 fa f8 14 be f2 4e 04 bf e7 1c 22 be 10 86 cd 3c
       -0.14548102 -0.5168296 -0.15831338 0.02508834
0000e0 77 2f 1a 3f c4 ab 1c bf a7 de 50 3e 95 f2 cb bd
       0.60228676 -0.61199594 0.20397435 -0.09958378
0000f0 0b 18 76 3e b4 60 1e bd 0d be aa be 70 5b bd 3c
       0.24032609 -0.038666442 -0.33348122 0.02311489

conv1.bias f4 [64]
000000 ff 3e 2e 3e 44 5c fc 3e 38 90 65 3c cc 0e d3 bc
       0.17016219 0.49289143 0.014011435 -0.025763892
000010 35 5d 70 3e 18 fc 55 3e b2 11 e1 3e 1b 4f 45 3f
       0.23473056 0.20896947 0.43958813 0.7707383
000020 e9 5b a8 3e c6 5b 2c 3f b3 df e0 3e 4e d5 d6 3e
       0.32882622 0.67327535 0.4392067 0.41959614
000030 69 33 69 3f 46 97 a8 3e 01 e8 9d bd 29 13 ce 3e
       0.9109407 0.32927912 -0.07710267 0.40248993
000040 d7 0c d9 3e 59 4d 4f 3f 4a 00 12 3f 45 9c 43 3e
       0.4239261 0.809774 0.5703169 0.19102581
000050 c8 ab 2a 3e 53 91 a1 bd 12 0d ac 3e 27 ad e1 bd
       0.16667092 -0.078890465 0.33603722 -0.11019354
000060 7a 60 9d 3e 88 e9 4f 3d 21 a3 fc 3e da 1d 02 bf
       0.30737668 0.050759822 0.49343207 -0.508268
000070 48 80 b7 3e f2 ec 19 3f 90 e9 c5 3e 26 9c d3 3e
       0.35840058 0.60127175 0.38654757 0.4133007
000080 e3 3d 12 3f c2 d0 ad 3e 42 62 2e 3e 79 ce ce 3e
       0.5712568 0.33948332 0.1702967 0.403919
000090 cd b6 4c 3e 14 f6 c0 3e 36 3a c3 3e 2c 28 c7 3d
       0.19991608 0.37687743 0.3813035 0.09724459
0000a0 b3 e9 74 3e c8 f0 e5 3e fa 28 de 3e ff af 48 bf
       0.23917274 0.44910264 0.43390638 -0.7839355
0000b0 81 81 fb 3e e7 e3 2f 3e 44 ce b6 3e c1 3c 08 bf
       0.4912224 0.17176782 0.35704243 -0.53217703
0000c0 23 d9 6c be 4d 5f 4c 3f c7 b3 92 3d e6 a5 cf 3e
       -0.23129706 0.7983292 0.07163196 0.40556258
0000d0 df ee 18 3f 90 3b a1 3e 98 ba 9f be dd cc eb 3e
       0.5973949 0.31490755 -0.31197047 0.46054736
0000e0 fb 15 db 3d 2c ab b5 3e 87 c8 15 3f 54 16 9d 3e
       0.10697552 0.35482156 0.58509105 0.30681098
0000f0 64 0f ad 3e a3 83 2c 3e ad 5c 61 3e 9c bf 09 be
       0.33800805 0.1684709 0.22008009 -0.13452

conv1.lin.weight f4 [64, 6]
000000 4a 53 95 be 1f 41 95 3d fc 7a 4e bd dc 02 9c bd
       -0.29165107 0.072878115 -0.050410256 -0.07617733
000010 10 18 bf be 2e f5 35 3e 51 02 4d be 70 4b 1b be
       -0.37323046 0.1776931 -0.20020415 -0.15165496
000020 e9 76 27 be b6 97 32 be 85 06 be be ff ad e8 3c
       -0.16353954 -0.17440686 -0.3711435 0.02840328
000030 ce e6 1a be 4d 6a 25 bc 57 40 be be 06 94 2b be
       -0.15127108 -0.010096145 -0.37158462 -0.16755685
000040 26 38 a2 bb c1 2a 87 be 13 56 f2 bc 02 8a 72 be
       -0.004950541 -0.26399806 -0.029582059 -0.23685458
000050 49 e3 4a 3e 27 d9 2f 3e b1 34 44 3d b9 07 7c bd
       0.19813265 0.17172681 0.047901813 -0.061530802
000060 5b 8e 10 be fa b6 f0 bd ee de ef 3d f2 fd b5 be
       -0.14116804 -0.1175365 0.11712442 -0.35545307
000070 a2 ab 8d be 88 5e 48 3d 96 54 7b bc 5e c2 0d 3e
       -0.27670008 0.048918277 -0.015339991 0.13843676
000080 2f 39 94 3e 8f 6e bc be 22 88 b0 be 8e 44 6d 3d
       0.28949878 -0.368031 -0.3447886 0.057926707
000090 34 91 60 be 16 c5 64 3e 92 3d cc bc ae 0f 76 be
       -0.2193039 0.22340807 -0.024931703 -0.24029419
0000a0 19 3e 78 bd bf 6e 05 bc 4c f0 7e bf 78 56 9e be
       -0.060606096 -0.00814408 -0.99585414 -0.30925345
0000b0 0b 90 57 bf c2 a7 1f be 62 59 0d bf bd 2e 0b bf
       -0.8420417 -0.15591338 -0.5521451 -0.5436819
0000c0 74 92 c2 be 61 3b 53 3d 3c 9d 69 bb 81 a5 69 be
       -0.3800236 0.0515703 -0.0035646698 -0.22817041
0000d0 5c 0c 14 be db 90 27 3e bb ab ea be 98 56 0b be
       -0.1445784 0.16363852 -0.45834145 -0.13607252
0000e0 d2 a1 0a bf 40 58 b9 be 9a 63 2b bf 4c c9 9d bd
       -0.5415317 -0.36200142 -0.66948855 -0.0770441
0000f0 98 cd 83 bd 8a d6 16 3d af 84 8e bd d8 dc 98 3d
       -0.06435698 0.036825694 -0.06958901 0.074639976
000100 c3 0c ab bd 29 b1 88 be 82 36 a1 bc 75 f3 5f be
       -0.083520435 -0.26697662 -0.019679312 -0.21870215
000110 00 fa 8b be e2 60 e1 be 3c b2 43 3d a3 c7 d7 3d
       -0.27339172 -0.44019228 0.0477774 0.105361246
000120 10 9a 41 bf 6a 23 03 bf de 27 22 bf 19 77 74 be
       -0.75625706 -0.5122591 -0.6334208 -0.23873557
000130 bb dc 6a bf 38 49 1e bf 23 98 8e bd 1a 84 cb be
       -0.9174306 -0.6183047 -0.069626115 -0.39749223
000140 aa 39 5b 3c 59 a0 b0 bd e9 1e d1 3d 73 ba df bd
       0.013380447 -0.08624334 0.10210974 -0.10924234
000150 7b 59 79 bb 38 ce c0 3d 3a 65 b4 bd 8f fb 82 be
       -0.003804772 0.09414333 -0.0880837 -0.2558255
000160 81 6b bb bd c8 59 54 3d 78 2d d4 bd 02 9f 50 3c
       -0.09151364 0.051843435 -0.10360235 0.012733223
000170 90 4b 54 3c 99 60 b0 be 55 cd 18 be 55 74 1d 3e
       0.012957469 -0.34448698 -0.14922078 0.15376408
000180 2a 54 43 bd 58 fa 9a be 12 32 e7 be a9 a5 d2 bd
       -0.047687687 -0.30269122 -0.45155388 -0.102855034
000190 94 05 0f bf 77 8c 32 3d a9 49 ae be ab a4 5f bd
       -0.55867887 0.04359099 -0.34040573 -0.0546004
0001a0 06 08 48 3d 2e b5 33 bc fc 0f a1 3d 18 9e b6 be
       0.048835777 -0.01096849 0.07864377 -0.3566749
0001b0 2f 6d df be 02 dd 94 be 40 8f eb be 8b 22 2b bf
       -0.43637988 -0.29074866 -0.4600773 -0.66849583
0001c0 85 86 ce be 93 bf 75 bd b5 a6 93 3e 30 b6 d4 be
       -0.40337005 -0.059997153 0.28838125 -0.41545248
0001d0 d0 b7 f3 3d 1a c7 39 3c 68 fb 98 bd 33 2d b2 be
       0.11900294 0.011338973 -0.07469827 -0.3480011
0001e0 5e f2 0a bf 24 40 41 be 45 54 b5 be f0 70 4f bd
       -0.5427607 -0.18872124 -0.35415855 -0.050644815
0001f0 16 38 03 bd 96 5e 2b bf dd 17 f8 3e b2 f8 a4 be
       -0.03203591 -0.669412 0.48455706 -0.3222099
000200 3c 0b d9 be 91 46 89 be 31 58 ee be b8 15 22 bf
       -0.42391384 -0.2681165 -0.4655166 -0.6331439
000210 e3 40 1f 3d 42 8a dd be c4 a7 e9 bd e7 1e 9d be
       0.03888024 -0.43269545 -0.11408952 -0.3068764
000220 0a a2 89 be 64 8b 81 be 60 0a 8c bd b3 2a 5d bd
       -0.26881438 -0.2530166 -0.068379164 -0.0539958
000230 40 7a 99 be 09 34 0a be 06 37 74 be 89 72 fd bd
       -0.29976082 -0.13496412 -0.23849115 -0.123753615
000240 d8 9a ab 3d ff 14 cb be b7 57 03 3d 71 46 6c be
       0.083791435 -0.39664456 0.032066073 -0.23073746
000250 00 9e c8 3d 62 5e bb 3d 3b 2a 3a bd 3c 63 ce bd
       0.09795761 0.091488615 -0.04545043 -0.10077521
000260 2f 6f bd be 3f c7 0b 3e 33 b7 05 bf 92 71 83 be
       -0.3699889 0.13650225 -0.52232665 -0.25672585
000270 07 69 c7 be 9e 7a af 3c a9 79 47 be 31 13 fa bd
       -0.38947317 0.021420773 -0.19480003 -0.12210692
000280 20 2f 62 be 78 e8 02 bf fc 7a b8 3e 3c 9e f5 3d
       -0.2208829 -0.5113597 0.3603133 0.119930714
000290 22 25 c0 be b7 96 d8 3e 4e 6c 06 3d d2 b1 ad be
       -0.3752833 0.42302486 0.03281813 -0.3392473
0002a0 e0 67 7c bc 8e 05 67 3d 91 6e a7 be 25 8b be 3e
       -0.015405625 0.05640178 -0.32701543 0.37215534
0002b0 e9 08 6f be 70 4e 58 be 35 30 fe be 89 4d d9 bd
       -0.23343243 -0.21123672 -0.49646154 -0.10610492
0002c0 b7 b4 5f be 6c 8d ca be 99 8b 8e be 79 61 0e bd
       -0.21846281 -0.3956102 -0.2784088 -0.034760926
0002d0 a6 86 e6 3e e6 d8 08 bf b6 75 6b ba 32 36 54 be
       0.45024604 -0.5345596 -0.0008982079 -0.20723799
0002e0 6e d5 18 3c 63 a5 5a be 5c c2 89 be 91 89 24 be
       0.009328229 -0.21352153 -0.26906097 -0.16068102
0002f0 2b 46 6b be 9d e2 b6 3d ca 2b 00 3e 57 1f 93 bd
       -0.22975986 0.08929942 0.12516704 -0.07183712
000300 76 08 c1 be 0e 00 2b be a0 0e 48 be a7 8c b7 bc
       -0.37701768 -0.1669924 -0.19536829 -0.022405935
000310 a8 07 1d be 41 07 08 bf 89 3e d5 be 05 e6 96 be
       -0.15334952 -0.5313607 -0.41649273 -0.29472366
000320 2a 2f 07 bf eb 39 06 bf 02 2e 2a bf a6 65 32 bf
       -0.5280634 -0.52432126 -0.6647645 -0.69686353
000330 a3 bb 3e bf 53 f1 ad be 6d 94 9a be 78 3a d3 be
       -0.7450506 -0.33973178 -0.30191365 -0.41255546
000340 88 a2 1b bf a1 f8 d8 be e6 77 44 bf 1b 70 fd bd
       -0.6079488 -0.4237719 -0.7674545 -0.12374898
000350 d9 bf 52 bf 97 44 16 bf cd 34 80 bf 6f 48 07 bf
       -0.82323986 -0.5869841 -1.0016114 -0.528449
000360 0d fd 03 be bc 33 98 be f2 8a 9c 3d 14 ac 89 bd
       -0.128895 -0.2972697 0.07643689 -0.067222744
000370 76 32 dd 3d e9 c5 02 3d 48 9d 2b 3d 84 54 bf be
       0.1080064 0.031927023 0.041898042 -0.37369168
000380 c0 ff a4 3d 15 54 a1 3e 80 94 b0 be f4 d9 9e be
       0.08056593 0.31509462 -0.34488297 -0.3102566
000390 48 35 44 bf 04 bf 87 bf 6b a7 75 bf 95 82 7b bf
       -0.766438 -1.0605168 -0.95958585 -0.9824613
0003a0 11 17 77 bf ce b3 7f bf 84 9a 68 be d9 d5 ba 3d
       -0.9651957 -0.99883735 -0.22715193 0.091228195
0003b0 4d a1 06 bd 44 96 3b be 25 fb 61 3b 0a 79 d9 be
       -0.032868672 -0.1831904 0.003448197 -0.42475158
0003c0 46 0c 7a bf 1f f6 a1 be e9 f3 55 bf c8 97 ef be
       -0.9767498 -0.31633088 -0.835753 -0.46795487
0003d0 78 0f 86 bf be 16 48 bf b7 c6 e1 be 83 7a 4e bf
       -1.0473471 -0.781597 -0.4409692 -0.8065569
0003e0 e8 42 5a be 7f 30 df 3d a9 ed ba be db b7 01 be
       -0.21314585 0.10897922 -0.36509445 -0.12667792
0003f0 9e 6f 80 bf 8b 23 8e be d8 22 9b bf c4 95 80 bf
       -1.0034063 -0.27761492 -1.2120008 -1.0045705

conv2.att_src f4 [1, 1, 7]
000000 64 f6 3b 3f 83 65 2e bd 72 92 28 3f 52 26 d2 bd
       0.7342284 -0.042577278 0.6584846 -0.10261215
000010 97 22 06 3f d5 5c cb be f1 34 5d 3f
       0.5239653 -0.39719263 0.8640891

conv2.att_dst f4 [1, 1, 7]
000000 80 2e b8 bf d6 46 c9 bf 0b a7 0f 3e ef 39 1a 40
       -1.4389191 -1.5724742 0.14028566 2.409786
000010 4c 22 e6 bf 97 88 8e 3e ef 1c 35 bf
       -1.7979217 0.27838585 -0.70747274

conv2.bias f4 [7]
000000 5b ef 7e bd d8 e2 90 3e 10 dc b3 be 2b 35 e0 3e
       -0.062239986 0.28298068 -0.35128832 0.43790564
000010 43 12 58 bf 09 ea ed 3e ff 39 92 be
       -0.84402865 0.46467617 -0.28559873

conv2.lin.weight f4 [7, 64]
000000 5f f7 84 be 8b 2e 19 3e 2b 7b 02 3f d8 7e d7 bd
       -0.2596998 0.14959161 0.5096919 -0.105222404
000010 00 ca b9 3d 48 48 41 be 6a 82 ad bc 32 fe 96 be
       0.090717316 -0.1887523 -0.02118035 -0.2949081
000020 ad 47 e4 3d 0f 34 27 be 56 3a 48 3e 20 f8 70 3e
       0.111464836 -0.16328453 0.19553503 0.23532152
000030 2e 9e 6e be 4f a4 89 3e 4f 36 e2 3d 5c 32 30 3e
       -0.23302528 0.2688317 0.11045515 0.1720671
000040 41 2f 4e 3e d8 8c 76 3e 58 f2 e1 3b 7e 10 0a be
       0.20135213 0.24077165 0.0068953447 -0.13482854
000050 38 90 62 be ea 51 05 bc df 3e 40 3e b6 3a 13 be
       -0.22125328 -0.008137206 0.18773983 -0.14377865
000060 9c 2a 5e 3d 87 59 3b 3e 43 f6 ef bd 0f 20 a8 bd
       0.054239854 0.1829587 -0.117168926 -0.0820924
000070 19 6f 61 3e 25 42 b9 bd 3b da ad bd 7f b5 00 3d
       0.22015037 -0.09045819 -0.0848889 0.03142309
000080 7e 62 c6 3e a0 95 ae 3e 61 be dc 3d 48 ca b3 bd
       0.3874702 0.3409853 0.107784994 -0.087788165
000090 72 90 d5 bc 7c 57 4b 3e 57 b6 08 bf 81 a5 8a 3d
       -0.026069853 0.19857591 -0.5340323 0.067698486
0000a0 60 bb 69 bd 4e 1e 2a 3e e4 40 77 bd c9 54 22 bf
       -0.05706346 0.16613123 -0.06036462 -0.6341062
0000b0 20 e1 85 3e b8 06 7e bd 81 77 8a 3d 26 cd b3 be
       0.2614832 -0.062018126 0.06761075 -0.35117453
0000c0 5a 0c d6 bd 53 7f c4 3e 69 5b 9d 3d b4 f0 27 be
       -0.104515746 0.3837839 0.07683451 -0.16400415
0000d0 7c 3f ee bb c5 3e 27 be 89 38 b2 3d f7 c7 14 bc
       -0.0072707515 -0.16332538 0.087021895 -0.009080878
0000e0 17 d8 10 be d1 43 af bd 87 f1 83 3e ad f8 e3 3d
       -0.14144932 -0.08557857 0.25770208 0.111314155
0000f0 d7 aa c5 3d 46 8c 01 be e2 13 1f bd c8 1d be bd
       0.09651726 -0.12651166 -0.03883732 -0.09283024
000100 dc 12 0f be bc 3d 89 3d 2e c0 2e 3e 3e 5a 94 be
       -0.13972038 0.06701228 0.17065498 -0.289751
000110 01 13 8f 3e 4e 56 37 be 30 27 d6 3c 1b ee ce 3d
       0.27944186 -0.17904016 0.026141733 0.10104009
000120 fa 3c 44 bd 26 ce 96 3d a1 9e 46 3b 7d 93 12 3e
       -0.047909714 0.073635384 0.0030306953 0.14314075
000130 bc 26 00 3e 7f ef 1d 3e cd f9 4e 3c 45 d5 cc 3c
       0.12514776 0.15423392 0.012632799 0.025004039
000140 9f e0 f3 3c d8 cf db 3d 31 9b 4a 3c f7 2f c5 3d
       0.029770194 0.107330024 0.012366102 0.09628289
000150 b0 1d 97 bd 19 cb 95 3d dc ab 82 be 4f 97 b6 3e
       -0.07378709 0.073141284 -0.25521743 0.35662314
000160 23 5b 2d 3d 0d aa 22 3e 78 2f 76 bd 40 f7 3b be
       0.042323243 0.15885182 -0.060103863 -0.18356037
000170 d1 1e f5 bc ae 8d 0b be a5 e5 3a bd 4d 09 0c bc
       -0.029921921 -0.13628265 -0.045629162 -0.008547139
000180 96 22 ca 3a 43 03 c9 bd 55 e5 dd 3d 33 1b 12 be
       0.0015421684 -0.09815075 0.10834757 -0.14268188
000190 21 73 b3 bd e5 d7 c3 bd 20 d3 bc 3d bb b7 16 be
       -0.087621935 -0.09562663 0.092199564 -0.14718525
0001a0 3a e1 95 3e 93 d3 30 3e 7e 12 6e 3e 41 de 59 be
       0.29273397 0.17268209 0.23249242 -0.2127619
0001b0 7d dc 9a 3e 73 fe 8f be 40 c0 c0 3d 86 d4 d5 bd
       0.30246344 -0.28123817 0.09411669 -0.10440926
0001c0 5a 5d 17 be 8f 7d c5 bb ed cd e2 3d 0d eb 07 be
       -0.14781705 -0.0060269306 0.110744335 -0.13273259
0001d0 d3 3e 44 be 57 b5 d1 bd 42 ae 73 be d5 19 e2 3e
       -0.1916459 -0.10239666 -0.23796943 0.44160333
0001e0 bf fa 2b bd 6a fa c9 3d b8 b4 6c 3e d7 53 39 be
       -0.041987177 0.09862216 0.23115814 -0.18098389
0001f0 b8 dd 44 3e 0c 00 86 3e be 84 95 3e 5b fd bf bd
       0.19225204 0.2617191 0.29202837 -0.093744956
000200 e1 e0 54 3c 40 60 33 3e 32 64 ff 3d 32 28 ed bd
       0.012993068 0.17517185 0.124702826 -0.11579932
000210 03 c4 d8 3e 32 05 97 bd 88 e9 a9 3d c5 e0 93 be
       0.42337045 -0.07374038 0.08296496 -0.28882423
000220 c1 f4 8d 3e 99 4c 30 3e 69 0c 09 3e a4 3c a1 3d
       0.27725795 0.1721672 0.1338364 0.078728944
000230 5c cb 64 be ce 67 35 3e 0d 16 0a be 67 3d 62 bc
       -0.223432 0.1771538 -0.13484974 -0.013808585
000240 c7 45 03 3e 69 88 ea 3d 60 14 61 3d 46 8c 0f be
       0.12819587 0.114517994 0.05495107 -0.14018354
000250 f8 1e 57 be 8f 98 00 3d 5d 0d 94 3e 64 e8 92 3c
       -0.21007907 0.03139549 0.28916445 0.017933078
000260 ee 76 59 3c e0 2c 07 bd e5 18 4d be e9 a2 5c be
       0.013272984 -0.03300178 -0.20029028 -0.2154652
000270 31 c0 5c be f0 6d 66 3e ed 8c 9c bc 64 09 97 3d
       -0.2155769 0.22502875 -0.019110167 0.07374838
000280 53 7f 93 3d 89 b0 b2 3e 66 0a f6 bd 44 37 ad 3e
       0.072020195 0.3490031 -0.12013702 0.33831227
000290 6f af 6a 3b 52 fe ef bd d5 82 5a 3d 69 9b 6d bc
       0.0035810133 -0.117184296 0.053347427 -0.014502385
0002a0 36 4f f1 bd 23 8d 6c 3e 85 7c 23 be 81 6c 94 be
       -0.117826864 0.23100714 -0.15965469 -0.28989032
0002b0 33 ae 60 3e 00 f5 c0 3d d7 a1 c9 3d ef 71 9a be
       0.21941452 0.0942173 0.098453216 -0.3016505
0002c0 33 b4 83 be aa b6 dd 3e 79 38 01 3e 1d ed e4 3d
       -0.2572342 0.43303424 0.12619199 0.11178038
0002d0 12 2f 44 3d 61 e6 d0 3d 31 04 15 be c2 c9 0c be
       0.047896452 0.10200191 -0.1455238 -0.1374884
0002e0 52 28 8a be 69 89 28 be 4e b9 1d 3f a1 a6 6f 3e
       -0.26983887 -0.16458668 0.6161088 0.23403408
0002f0 cb 03 b2 bd 23 a8 0d bd 09 3e 1d bd a6 5a 00 be
       -0.0869213 -0.034584176 -0.03838924 -0.1253458
000300 84 ec ba be 82 9b 05 3e 5c 76 a8 bd 5c d9 bb bd
       -0.36508572 0.13047603 -0.082257 -0.091723174
000310 d7 c5 af bd 99 37 f8 bd d7 d4 af 3d 04 e9 1d bd
       -0.08582657 -0.121199794 0.08585518 -0.0385523
000320 5b bd 3a be ee c0 e1 bd 8f cd 00 3e c1 f4 93 3d
       -0.18236296 -0.110231265 0.12578414 0.072244175
000330 ee fc 53 3e 19 b2 85 3e fb 59 88 bd 03 91 ec bc
       0.20701954 0.2611244 -0.066577874 -0.02887774
000340 18 c1 da 3d 67 37 ac 3e aa 3f ba bb f3 39 0f be
       0.10681361 0.3363602 -0.005683859 -0.1398695
000350 4e 66 6d be 30 4a 5b be 54 e6 b7 3b 3c 81 41 be
       -0.23183557 -0.21415019 0.005612174 -0.18896955
000360 79 29 aa bd eb 85 83 3d dc d5 27 3e d8 31 1b be
       -0.083086915 0.06422027 0.16390175 -0.15155733
000370 f9 32 3a 3d da cc 30 bc 98 cd 85 bc 76 73 24 3c
       0.045458768 -0.010791028 -0.016333386 0.010037294
000380 a2 9f 2c 3d 38 d7 48 3e 42 b9 69 3d 3a cb 97 3d
       0.042144425 0.1961335 0.05706144 0.07411809
000390 8a 5d d1 bd 11 b8 72 bd 14 90 ff 3d 0a 47 6c be
       -0.10222919 -0.05925757 0.124786526 -0.23073974
0003a0 49 94 df bd 8c 95 96 bc f0 d7 f2 3d 2a 50 89 be
       -0.10916955 -0.018381856 0.11857593 -0.26818973
0003b0 8e f8 75 3e 34 32 43 3d c7 92 46 be ba b5 1d bc
       0.24020597 0.0476553 -0.19391929 -0.0096258465
0003c0 b3 92 87 be 83 43 e6 3e 33 71 e1 bd 1e 48 48 bd
       -0.2647911 0.44973382 -0.11007919 -0.0488969
0003d0 ed 05 00 3d c2 76 74 be ab 76 8f be 5b 74 39 3e
       0.03125565 -0.23873428 -0.28020224 0.18110792
0003e0 e6 f8 da bd 7c 08 9a bd 5b 65 a2 3e 58 e5 04 be
       -0.10692005 -0.075211495 0.31717953 -0.12978113
0003f0 7c 97 dc bc fa 9d c4 3d 74 8f a5 bd 89 41 93 be
       -0.026927702 0.09600444 -0.08084002 -0.28760937
